model.pt (torch, 2240 bytes, 3 tensors)

fc1.weight f4 [5, 10]
000000 73 8d df bb 3a 3d 25 bd a4 31 05 be 94 cd 68 3e
       -0.006822282 -0.040341593 -0.13007218 0.22734672
000010 ea 7e fa 3d 1a 5d 57 be 02 8f 17 3d 5a 99 85 3e
       0.12231238 -0.21031609 0.037001617 0.2609356
000020 62 6b 44 be 16 da 1a bd 6c cd 7b be 24 f3 05 3e
       -0.19181588 -0.03780564 -0.24590081 0.13081032
000030 91 52 8e 3e eb fb a8 3d 86 9c 87 be 2c 48 20 3e
       0.27797368 0.082511745 -0.26486605 0.15652531
000040 cd 21 73 be f2 76 8b 3d 02 62 03 3e 24 d3 31 bd
       -0.23743363 0.068097964 0.12830356 -0.04341425
000050 36 7e 81 3d 19 67 a8 3d 39 9d 8a 3e 68 dc 37 3e
       0.06322901 0.08222789 0.27073076 0.17955172
000060 c5 9b 00 bc 82 0d 08 3e 91 23 80 3e 79 c8 21 be
       -0.007849638 0.13286403 0.25027135 -0.1579913
000070 4b 6f c2 bb 50 7d 2c be 18 fa 0d be 3b b3 86 bd
       -0.0059336773 -0.16844678 -0.13864934 -0.06577154
000080 bf b7 4b 3e 9d fe ae 3d 71 d9 e5 3d 63 b8 53 bd
       0.19894312 0.085446574 0.11223114 -0.051689517
000090 b3 0c 3e bb 36 16 9a bd d4 e3 34 be ba e2 f6 3d
       -0.0028999269 -0.07523768 -0.17665035 0.120549634
0000a0 79 14 96 3e ae 4a 04 be 79 18 c9 bd 0a 7b ae bd
       0.29312494 -0.12919113 -0.09819121 -0.085195616
0000b0 17 41 3f be f1 a0 1e 3e 29 00 28 3d e8 08 31 3d
       -0.18677174 0.15491082 0.041015778 0.043221384
0000c0 21 c8 02 bd a6 b2 81 bd
       -0.03192914 -0.063329026

fc1.bias f4 [5]
000000 18 e2 e3 3c d4 b3 17 3e 7b a3 03 be e7 75 bf be
       0.02781777 0.14814693 -0.12855332 -0.3739464
000010 59 3e 36 bd
       -0.044493053

fc2.weight f4 [1, 5]
000000 e0 b5 10 be 80 dc aa bd 3e dc e0 3e 1a 0c 9a be
       -0.1413188 -0.08342838 0.4391803 -0.30087358
000010 7a cb 52 3e
       0.20585433
